SR/models/anime/fsrcnn/model_FSRCNN_cpu.pt (torch, 77223 bytes, 22 tensors)

weight f4 [56, 1, 5, 5]
0	0xbd866ae2	-0.06563355
1	0xbca7d3ce	-0.020486739
2	0x3d4e0f0f	0.05030733
3	0x3d4f82ae	0.050661735
4	0xbd4d5746	-0.05013206
5	0x3bec976d	0.0072202
6	0x3ebea3c4	0.37234318
7	0xbe08a8fc	-0.13345712
8	0xbe6c60b3	-0.23083763
9	0x3cff853a	0.031191457
10	0xbdba8c24	-0.09108761
11	0xbed6bdeb	-0.4194177
12	0x3f9fb08b	1.2475752
13	0xbdbb3a39	-0.091419645
14	0x3e0c5e04	0.13707739
15	0x3e21d5b6	0.1580418
16	0xbf761381	-0.9612351
17	0xbe8ee515	-0.2790915
18	0x3e8cb697	0.27483055
19	0xbd633b6d	-0.055476595
20	0xbb7f66bc	-0.0038971147
21	0x3e8367fc	0.2566527
22	0xbe49d7c7	-0.19711219
23	0x3cce6724	0.025195666
24	0xbd6143d6	-0.054996334
25	0x3d02f3cd	0.031970788
26	0x3c972335	0.018449405
27	0xbd909027	-0.07058745
28	0xbbfa8156	-0.0076448126
29	0xbb5fcfb0	-0.003415089
30	0x3c1844be	0.009293733
31	0xbd662838	-0.0561907
32	0x3e0682f1	0.13135888
33	0xbc8a0fb9	-0.0168532
34	0x3c39b58b	0.011334787
35	0xbd74599a	-0.059655763
36	0x3e208df0	0.15679145
37	0x3e6d39cb	0.23166578
38	0xbb527b0a	-0.0032116794
39	0x3bcc5d4a	0.006236707
40	0xbca1ebe4	-0.019765802
41	0x3d0bec85	0.03416111
42	0x3e67b937	0.22629248
43	0xbd83986c	-0.064255565
44	0xbd55d450	-0.05220443
45	0xbc44ce35	-0.012012054
46	0xbd0eaa76	-0.034830533
47	0x3c3a4d3d	0.011370954
48	0xbd9e7bcf	-0.07738458
49	0x3d38b4e7	0.045094397
50	0xbcaa17d4	-0.020763315
51	0x3d83ca35	0.06435052
52	0xbd93285c	-0.07185432
53	0x3d4f9e8d	0.050688315
54	0x3cb0128b	0.021493217
55	0x3bc38956	0.0059672995
56	0xbdcd0428	-0.10010558
57	0xbca2a7a1	-0.019855322
58	0x3a3e8901	0.000726834
59	0xbcd79803	-0.026317602
60	0xbe396e1e	-0.18108413
61	0x3ec9c89c	0.39410865
62	0xbf3ac446	-0.7295574
63	0x3e681573	0.22664432
64	0xbd60e329	-0.054904137
65	0x3d929675	0.07157604
66	0xbd80d8e2	-0.06291367
67	0x3e0ae1d6	0.13562712
68	0xbdbe4d5e	-0.092921
69	0x3d3645b5	0.04450007
70	0x3dbf9b93	0.09355845
71	0x3d38e15b	0.04513679
72	0xbd3813d3	-0.04494078
73	0xbcd30ad4	-0.025762
74	0x3cff07b2	0.0311316
75	0x3d45d2ff	0.048296925
76	0xbdbc0a39	-0.09181637
77	0x3dc763cb	0.09735831
78	0xbc554a44	-0.013018195
79	0xbbcc0634	-0.0062263254
80	0xbcf7683e	-0.030201074
81	0x3c6898ff	0.014196633
82	0x3e3fcbbb	0.18730061
83	0xbddfb6e4	-0.109235555
84	0xbc9d89a2	-0.019230668
85	0xbd4bebe8	-0.049785525
86	0x3e477043	0.19476418
87	0xc003175f	-2.0483015
88	0x3ea2165b	0.3165768
89	0xbd225f1d	-0.03964149
90	0x3d8cb0b0	0.06869638
91	0x3df58d97	0.11989897
92	0x3eefb87b	0.46820435
93	0xbe02b815	-0.12765534
94	0x3ba6e660	0.005093381
95	0x3d804d8f	0.06264793
96	0xbc9bfc0c	-0.019041084
97	0xbd168581	-0.036748413
98	0xbc4a7906	-0.012357956
99	0x3d264225	0.040590424
100	0xbbef2e17	-0.0072991955
101	0x3e00b873	0.12570362
102	0xbe8f3481	-0.27969745
103	0x3dc915ae	0.09818588
104	0xbc825a29	-0.015912132
105	0x3d873fdf	0.06603979
106	0x3d393d1c	0.045224294
107	0xbece9c55	-0.40353647
108	0xbed5aa37	-0.41731426
109	0x3db2889a	0.08717461
110	0xbdebabfc	-0.11507413
111	0x3dbe92f0	0.0930537
112	0x3f3c1407	0.7346806
113	0x3d77602e	0.06039446
114	0xbd38958d	-0.045064498
115	0x3d1ef5f9	0.038808797
116	0xbdf9c64e	-0.12196027
117	0x3d42cb47	0.04755714
118	0x3cc9bdd8	0.024626657
119	0x3d958eab	0.073026024
120	0xbc69d7ab	-0.014272611
121	0xbd230487	-0.03979924
122	0xbd94b798	-0.0726158
123	0x39e1a0be	0.00043035107
124	0xbba559bb	-0.005046097
125	0x3e5ccf5f	0.21563481
126	0xb8ef6aeb	-0.00011416323
127	0xbd92675e	-0.07148622
128	0xbdec500b	-0.115387045
129	0x3d9d2692	0.07673372
130	0xbe1bb0e1	-0.15204193
131	0xbd730b38	-0.05933687
132	0x3c78b295	0.015179296
133	0x3e786457	0.24257027
134	0xbe734acd	-0.23759003
135	0xbc5efde7	-0.01361034
136	0x3e5ea5d1	0.21742941
137	0x3f11afc3	0.56908816
138	0xbf8093c1	-1.0045091
139	0x3e749a0e	0.23886892
140	0x3cd64321	0.026155056
141	0xbe9c6fef	-0.3055415
142	0xbf43ef55	-0.76537067
143	0x3f8900f3	1.0703415
144	0xbe0d58ce	-0.13803408
145	0xbda6a447	-0.08136802
146	0x3d2e420f	0.042543467
147	0x3edf6634	0.43632662
148	0xbeda00f2	-0.42578846
149	0xbe1c73c7	-0.1527854
150	0x3c419742	0.011815848
151	0xbb4f875c	-0.0031666374
152	0xbcd32925	-0.025776455
153	0x3ca68b57	0.020330114
154	0x3c03f99a	0.008055115
155	0x3c97ba06	0.01852132
156	0xbc1e063c	-0.009645041
157	0x3b940586	0.00451726
158	0xbc9f6dec	-0.019461595
159	0x3c4f242d	0.012642902
160	0xbcc7b01c	-0.024375968
161	0x3c68969c	0.014196064
162	0xbfb0487b	-1.3772119
163	0x3fb0c836	1.38111
164	0xbac4b977	-0.0015008886
165	0x3be0363f	0.006842404
166	0x3c2be15d	0.0104907425
167	0xba325d6e	-0.0006804083
168	0xbc4af4ee	-0.012387497
169	0x3ac7bc10	0.0015238542
170	0x3ba5fa22	0.0050652185
171	0xbd0932a5	-0.033495564
172	0x3c42b980	0.011885047
173	0x3c6b89bb	0.014376099
174	0xb98b6fb9	-0.00026595386
175	0x3cd9e678	0.026599154
176	0xbbf73fbe	-0.0075454405
177	0x3cd05eac	0.025435768
178	0x3bd5abb5	0.006520713
179	0xbb565850	-0.0032706447
180	0xbcb87a40	-0.02251923
181	0xbd02942c	-0.03187959
182	0x3c062df1	0.008189664
183	0xbc4ba5f9	-0.012429708
184	0xbc9f0697	-0.019412322
185	0xbaf06739	-0.001834131
186	0x3da3d46c	0.07999501
187	0x3ec8b336	0.39199227
188	0x3dde50bc	0.108552426
189	0xbc16b15c	-0.009197559
190	0xbcd2094f	-0.025639204
191	0x3cb2943a	0.021799196
192	0x39bcc62b	0.000360058
193	0xbcea23e7	-0.028581573
194	0xbd73e57a	-0.059545018
195	0x3d4c2785	0.049842376
196	0xbc0d4be2	-0.008624049
197	0xbd825bfb	-0.063652
198	0xbd0d46c1	-0.034491304
199	0x3da83c91	0.08214677
200	0xbdd72ecb	-0.10506972
201	0xbd38e0a3	-0.045136105
202	0xbdd4eada	-0.10396357
203	0x3cd6d1cb	0.026223084
204	0x3d20353f	0.03911328
205	0xbcb2c7b3	-0.02182374
206	0x3de0750a	0.109598234
207	0x3ec50dc3	0.38487062
208	0x3e22aa72	0.15885332
209	0xbc918a6a	-0.017766196
210	0xbda35714	-0.07975593
211	0x3ce43e2f	0.027861683
212	0xbe7b8a28	-0.24564421
213	0xbf012ae7	-0.5045609
214	0xbdedcd77	-0.11611455
215	0xbe3240f3	-0.17407589
216	0xbeefb7e5	-0.46819988
217	0xbe47a9fd	-0.19498439
218	0x3cd19605	0.02558423
219	0x3db461fa	0.0880775
220	0x3e02f2d1	0.1278794
221	0x3e9ac1d2	0.30225998
222	0x3ed1066f	0.4082522
223	0x3ed77943	0.42084703
224	0x3db95fbd	0.09051464
225	0x3d093a91	0.03350312
226	0xbbf1086a	-0.0073557394
227	0xbda883d9	-0.08228273
228	0x3c64f047	0.013973302
229	0xbc309a87	-0.01077903
230	0x3cc95f76	0.024581652
231	0x3c7aaf61	0.015300603
232	0x3d859ec9	0.065244265
233	0xbd53e0b0	-0.05172795
234	0x3c01167e	0.007878898
235	0xbc9c1b73	-0.019056058
236	0x3e21bbed	0.15794344
237	0x3eac83d2	0.3369432
238	0xba61e620	-0.000861736
239	0xbd54a1ab	-0.05191199
240	0x3b8b4b17	0.0042508948
241	0xbdb7ce68	-0.08974916
242	0x3e15faf5	0.14646514
243	0xbd8032d2	-0.06259693
244	0x3d66bfdc	0.056335315
245	0x3c71ae7a	0.014751071
246	0xb98d4f41	-0.00026952664
247	0xbd881827	-0.06645232
248	0xbce315e1	-0.027720394
249	0xbc45b276	-0.012066474
250	0xbb1d8cef	-0.0024040302
251	0xbc598d07	-0.013278252
252	0xbc634f2d	-0.013873857
253	0x3d0ed1c5	0.03486802
254	0xbc477218	-0.012173198
255	0xbc482db4	-0.012217928

bias f4 [56]
0	0x3d02d771	0.031943742
1	0xbe228738	-0.15871894
2	0x3deb1fdb	0.11480685
3	0x3ea24154	0.31690466
4	0xbe634eab	-0.22197978
5	0xbdc9a6f6	-0.098462984
6	0xbbb8bf7b	-0.0056380606
7	0xbe1053dd	-0.14094491
8	0xbf04b028	-0.51831293
9	0xbe3c9be0	-0.18418837
10	0x3d2691f6	0.040666543
11	0xbe53a406	-0.20668039
12	0x3cdd263c	0.02699577
13	0xbd5e60f4	-0.05429168
14	0x3e657af1	0.2241018
15	0xbe3e5e45	-0.18590648
16	0x3c80131e	0.015634116
17	0x3cf3338b	0.029687664
18	0xbef607d0	-0.48052835
19	0xbe3ba625	-0.18325098
20	0x3e0c4b9b	0.13700716
21	0xbe287aa8	-0.1645304
22	0xbe0dcf49	-0.13848604
23	0x3c4d7961	0.012541146
24	0xbe1f6b4a	-0.15568271
25	0xbe33435b	-0.17506163
26	0x3dd70091	0.10498155
27	0x3c6a058d	0.01428355
28	0xbedea60e	-0.43486065
29	0xbe2c0a2b	-0.16800754
30	0x3da3728e	0.07980834
31	0x3dd5cac2	0.104390636
32	0x3f2f8037	0.68555015
33	0x3e0b4e8b	0.1360418
34	0xb8f7b741	-0.000118120115
35	0x3ea6f3f6	0.32608002
36	0xbe151aa2	-0.14560941
37	0x3d021ea3	0.0317675
38	0x3d749b23	0.059718262
39	0xbeb45e94	-0.35228407
40	0xbdd30430	-0.10303533
41	0xbccfc677	-0.02536319
42	0xbe4927cd	-0.19644089
43	0x3cc7de49	0.024397986
44	0x3cc08336	0.023500066
45	0xbd45ef35	-0.04832383
46	0x3d62ccf2	0.055371232
47	0x3cb41841	0.021984221
48	0xbe9b1b4b	-0.3029426
49	0x3d71a176	0.05899187
50	0xbd28231c	-0.041049108
51	0xbe3f384f	-0.18673824
52	0x3aa031d7	0.0012221885
53	0x3ccb9186	0.024849664
54	0x3d3c60e9	0.04599086
55	0x3dbcd333	0.092199706

weight f4 [56]
0	0xbfa45a48	-1.2840052
1	0x3f55e66d	0.83554727
2	0x3f6e62ca	0.9311949
3	0xbdb1722d	-0.086643554
4	0xbc3d8c2e	-0.011569066
5	0xbd855cd4	-0.06511846
6	0xbf1c3b24	-0.6102774
7	0x3f8b09e3	1.0862392
8	0x3a7f1c23	0.0009731671
9	0x3f6e7b6d	0.9315708
10	0xbfd83b44	-1.6893086
11	0x3f855057	1.0415143
12	0xbe69689a	-0.22793809
13	0x3f9c8b0c	1.2229934
14	0x3b877aa0	0.004134491
15	0xbe4fa3a7	-0.20277272
16	0x3e949a88	0.29024148
17	0x3b90be76	0.004417236
18	0xbd319463	-0.043354403
19	0x3f907b38	1.1287603
20	0x3f898eb4	1.0746675
21	0x3abd4f24	0.0014443141
22	0x3f88ff5e	1.0702932
23	0xbfe45055	-1.7837015
24	0x3f8a3f7c	1.0800624
25	0xbe673fe4	-0.22582966
26	0xbbc30db3	-0.005952561
27	0x3c867fff	0.016418455
28	0xbcc395a1	-0.02387506
29	0xbf7334c3	-0.95002383
30	0x3d25fcd9	0.040524337
31	0xbd07883b	-0.033088904
32	0x4096f88f	4.7178416
33	0xbc43ed18	-0.011958383
34	0xbff3ad90	-1.9037342
35	0x3b1a9e21	0.0023592787
36	0x3f8e7fd3	1.1132759
37	0xbe04e4d9	-0.12977923
38	0xbd814561	-0.06312061
39	0xbd0c906d	-0.034317423
40	0xbd7d4b53	-0.061839413
41	0xbdc07c2a	-0.093986824
42	0x39dbf1f0	0.00041951193
43	0xbfb7b45d	-1.4351918
44	0x3c339124	0.010959897
45	0x40786011	3.8808634
46	0xbe8e30fb	-0.27771744
47	0xc0046f1f	-2.0692823
48	0xbbc38b8e	-0.005967564
49	0x3d2215ce	0.039571576
50	0xbbdf9c4c	-0.006824052
51	0x3f6b92bb	0.9202077
52	0x3f646e8b	0.89231175
53	0x3bab6c8b	0.005231445
54	0xbd72e4a2	-0.059300072
55	0xbf0bffaa	-0.5468699

weight f4 [12, 56, 1, 1]
0	0x3dc8868a	0.09791286
1	0xbed41745	-0.41424003
2	0xbe9a396e	-0.3012194
3	0xbdf2d5cc	-0.11857185
4	0xbe92792c	-0.28608072
5	0xbe9abd3a	-0.30222493
6	0x3efeb84a	0.49749976
7	0xbe5d9fc2	-0.21642974
8	0xbe4f3387	-0.202345
9	0xbe84fa58	-0.25972247
10	0x3ee93202	0.45545965
11	0xbd24ab14	-0.040202215
12	0x3dbc656c	0.09199032
13	0xbd6cf370	-0.057849348
14	0xbe00e0b1	-0.12585713
15	0xbcec0318	-0.028810069
16	0x3db204d4	0.08692327
17	0xbd973f64	-0.07385138
18	0x3d66b614	0.056325987
19	0x3e3df38c	0.18549937
20	0xbd8f68ee	-0.070024356
21	0x3bf0ed74	0.0073525254
22	0x3ef26b9c	0.47347724
23	0x3dc09714	0.09403816
24	0xbe4fdffa	-0.20300284
25	0x3da8dbd5	0.08245055
26	0x3d992ced	0.07479272
27	0xbdbfc6d4	-0.09364095
28	0x3dde646b	0.10858997
29	0xbde7a0cb	-0.11309966
30	0x3e2376d9	0.15963306
31	0xbd9a0dca	-0.07522161
32	0xbbe6299e	-0.007024004
33	0xbdad35fc	-0.08457562
34	0xbd051f21	-0.03250039
35	0xbf3a8ac2	-0.7286798
36	0x3ecc4a1d	0.39900294
37	0x3e9c71f6	0.30555695
38	0x3e2a0e1b	0.16606943
39	0x3f206be6	0.6266464
40	0xbe56cc44	-0.20976359
41	0xbd941849	-0.072311945
42	0xbcfe7860	-0.031063259
43	0x3d8cfc49	0.06884057
44	0xbbdd73ba	-0.0067581804
45	0x3e27b4ba	0.16377535
46	0xbe8d83d4	-0.2763964
47	0xbd80ab38	-0.062826574
48	0x3d1064c6	0.035252355
49	0x3ede11df	0.4337301
50	0xbd84caae	-0.064839706
51	0x3e3fe541	0.18739797
52	0x3e4e55e2	0.20149949
53	0xbe53a609	-0.20668806
54	0xbd7a4694	-0.061102465
55	0xbf221e4a	-0.6332747
56	0xbe0b834c	-0.13624305
57	0x3eea07c2	0.45709044
58	0x3eca203b	0.39477715
59	0x3da8f9aa	0.08250745
60	0xbd861c54	-0.06548372
61	0x3f293a90	0.66104984
62	0xbfba8d26	-1.4574325
63	0xbee1f121	-0.4412928
64	0x3e618406	0.22023019
65	0x3d8bd988	0.068286
66	0xbcd63257	-0.02614705
67	0xbd5e07f7	-0.054206815
68	0x3e93608a	0.2878459
69	0xbda20a10	-0.079120755
70	0xbdd7b396	-0.105323
71	0x3f125ae3	0.5716993
72	0x3dedf30c	0.11618623
73	0x3e96a96c	0.29426134
74	0xbd2e1908	-0.04250434
75	0xbe589579	-0.2115077
76	0x3ea34e32	0.31895596
77	0x3f3f17f5	0.7464593
78	0x3e06ac6a	0.13151708
79	0xbdcef157	-0.10104626
80	0xbed1e430	-0.40994406
81	0xbe75b0b9	-0.23993196
82	0x3ed27875	0.41107526
83	0xbef9aeea	-0.4876626
84	0x3ea4ac0e	0.32162517
85	0x3c36b2d9	0.011151039
86	0x3e892445	0.26785484
87	0x3ebd75a4	0.37003815
88	0xbe5bb840	-0.21457005
89	0x3e3e1d8b	0.18565957
90	0xbe382899	-0.17984237
91	0x3f2c7dd6	0.6737951
92	0x3e025974	0.12729436
93	0x3d025a73	0.03182454
94	0xbd8cef0a	-0.068815306
95	0xbf88dc63	-1.0692257
96	0x3d1458d3	0.036217522
97	0x3e004b62	0.12528756
98	0xbcabedcb	-0.020987412
99	0x3cadc0b0	0.021210045
100	0x3df36704	0.11884883
101	0xbdbe85cb	-0.09302863
102	0x3e088aaa	0.13334146
103	0x3dea6c5e	0.11446451
104	0x3f23542a	0.638003
105	0x3e2059c3	0.15659241
106	0x3daf032b	0.08545526
107	0x3e018454	0.12648135
108	0xbedb7054	-0.42859137
109	0x3d5cab33	0.053874206
110	0xbe6f822a	-0.23389497
111	0x3e818599	0.2529724
112	0xbdf7c797	-0.120986156
113	0x3edfe312	0.43727928
114	0xbc8ac5fa	-0.016940106
115	0xbe994c36	-0.29940957
116	0xbe72467b	-0.23659699
117	0xbe9c0d30	-0.3047881
118	0xbed6610a	-0.4187091
119	0xbd4b478b	-0.049628776
120	0x3cb63983	0.02224422
121	0xbf12a465	-0.57282096
122	0xbd33b7ef	-0.043876585
123	0x3a899b62	0.0010498578
124	0x3d4915a4	0.049092904
125	0xbeb38907	-0.3506548
126	0xbcb94978	-0.02261804
127	0x3e172a3a	0.14762202
128	0xbee92f2b	-0.455438
129	0xbe199bbe	-0.15000817
130	0xbfa5ed7d	-1.2963101
131	0x3d2644ff	0.040593144
132	0x3e50ee1a	0.20403329
133	0x3d8a37e0	0.067489386
134	0x3edcd30c	0.43129766
135	0x3ce6f279	0.028191792
136	0x3f2fa845	0.68616134
137	0x3d364d98	0.044507593
138	0x3e3dcce5	0.18535192
139	0xbd90b3c8	-0.070655406
140	0x3f46d706	0.7767185
141	0xbe1c0456	-0.15236029
142	0x3f203a09	0.62588555
143	0x3e31a0d1	0.17346503
144	0x3e5dbdfc	0.21654505
145	0xbd67c742	-0.05658651
146	0xbc9e8be9	-0.019353824
147	0xbeeca554	-0.46219885
148	0xbdb4128d	-0.08792601
149	0xbce067b8	-0.027393207
150	0x3bc1c60c	0.0059135016
151	0xbf20dfb0	-0.6284132
152	0xbe593470	-0.2121141
153	0xbd147c0a	-0.036251105
154	0xbc86af1f	-0.016440926
155	0xbe4631fb	-0.19355004
156	0xbd596488	-0.05307439
157	0x3dc90ed1	0.09817279
158	0x3dc14738	0.09437412
159	0x3e0e0459	0.13868846
160	0xbed438db	-0.41449627
161	0xbf0550b5	-0.52076274
162	0x3d2f2ed6	0.042769276
163	0x3f0411cd	0.5158966
164	0xbe80c1ee	-0.25147957
165	0xbd0348a0	-0.032051682
166	0x3e6d04bd	0.23146339
167	0x3e5118c3	0.20419602
168	0xbf3efe90	-0.7460718
169	0xbead433d	-0.3384036
170	0xbdbf9eea	-0.09356482
171	0xbed9e158	-0.42554736
172	0x3b1d42a6	0.0023996024
173	0x3c96235e	0.018327411
174	0xbdc91a45	-0.09819464
175	0x3eb6a412	0.3567205
176	0x3e064463	0.13112025
177	0xbea9fae4	-0.33199227
178	0xbeba875a	-0.3643139
179	0xbf13530e	-0.57548606
180	0xbe80ce4b	-0.2515739
181	0xbb3c6dab	-0.002875189
182	0xbebe8cfb	-0.37216935
183	0xbe1aaac8	-0.1510421
184	0xbf1e4bc7	-0.6183438
185	0x3f408766	0.752066
186	0xbe9da284	-0.30788052
187	0x3ddfb478	0.109230936
188	0xbd9ad446	-0.07560019
189	0xbf363220	-0.71170235
190	0xbeebdfe5	-0.46069255
191	0xbf2b6b72	-0.66960824
192	0xbdedeff1	-0.11618031
193	0xbe289ab2	-0.16465262
194	0x3dd8b6c8	0.10581738
195	0x3e891f4b	0.26781687
196	0x3f08ebde	0.53484905
197	0xbdcb0d90	-0.09914696
198	0xbd02581c	-0.03182231
199	0xbed1944a	-0.40933448
200	0xbe9b79bf	-0.30366322
201	0x3e2d0c89	0.16899313
202	0xbd07ed9e	-0.033185594
203	0x3f8cd776	1.1003253
204	0xbdd3e8ae	-0.103471145
205	0xbf510495	-0.81647617
206	0xbe8290c6	-0.25501078
207	0xbe5eb5ba	-0.2174901
208	0x3e3c751c	0.18404049
209	0xbce8a3ac	-0.028398357
210	0xbdda0169	-0.106448
211	0xbeac61db	-0.33668408
212	0x3e753a49	0.23948015
213	0x3e8e43e5	0.27786174
214	0xbe8dc66d	-0.2769045
215	0x3f0edc5e	0.55805004
216	0x3ccecee2	0.025245134
217	0x3e86b70f	0.26311538
218	0x3d85ea2e	0.06538807
219	0xbe523b51	-0.2053044
220	0x3e5dee18	0.21672857
221	0x3e89d8d9	0.26923254
222	0xbdb04b8d	-0.0860816
223	0xbf3edd01	-0.74555975
224	0x3bc15d13	0.005900988
225	0x3e4fe9c5	0.2030402
226	0xbe5d8ee1	-0.21636535
227	0xbe48f71b	-0.19625513
228	0x3eafc1b0	0.3432746
229	0x3d6a1f68	0.057158858
230	0x3e4f367b	0.20235626
231	0xbeac50fd	-0.3365554
232	0xbeb43e0b	-0.35203585
233	0xbd475931	-0.048669044
234	0xbed32b06	-0.41243762
235	0xbe7d4b21	-0.2473569
236	0x3ea52aca	0.32259208
237	0x3e17d0a7	0.14825688
238	0xbdf771b4	-0.12082234
239	0x3e39f358	0.18159235
240	0x3c91c61f	0.017794667
241	0xbdd8171f	-0.10551285
242	0xbd0569aa	-0.032571472
243	0xbe0379c5	-0.1283942
244	0xbe510e2c	-0.20415562
245	0xbd8532e0	-0.06503844
246	0x3e9af297	0.30263206
247	0xbe0b5fe3	-0.13610797
248	0x3e9e4cd5	0.30917993
249	0xbd5130e8	-0.05107203
250	0x3e401ccd	0.18760987
251	0xbdbb7ca4	-0.09154633
252	0xbed844ab	-0.4223989
253	0xbe342d1c	-0.17595333
254	0x3d89f6af	0.06736504
255	0xbe158e0f	-0.14604972

bias f4 [12]
0	0xbe34ed27	-0.17668591
1	0x3d7fe00b	0.062469523
2	0xbe29f900	-0.16598892
3	0x3e05483b	0.13015835
4	0xbde2b597	-0.11069792
5	0xbee06b87	-0.43832037
6	0x3b1a4c43	0.002354399
7	0xbde7276e	-0.112868175
8	0xbd83ce09	-0.064357825
9	0xbcf5d10e	-0.030006912
10	0xbd6dc2e0	-0.058047175
11	0xbd591fa1	-0.05300868

weight f4 [12]
0	0x3f7ff3dc	0.99981475
1	0x3e407c73	0.18797474
2	0x3f7575da	0.9588295
3	0x3e0230a3	0.12713866
4	0x3f835eb9	1.0263282
5	0x3d978062	0.07397534
6	0x3e3e3e0e	0.1857836
7	0x3f81239b	1.0088991
8	0x3f7b594d	0.9818314
9	0x3f7936c5	0.97349197
10	0x3f7d6bc8	0.98992586
11	0x3f4c1cc1	0.79731375

weight f4 [12, 12, 3, 3]
0	0xbdac252d	-0.08405528
1	0xbdb2ff5a	-0.08740111
2	0x3e2cde84	0.16881758
3	0x3e97a3c0	0.2961712
4	0x3dfb121e	0.12259315
5	0xbd6edab2	-0.058314033
6	0xbeacf872	-0.337833
7	0x3e9d1956	0.30683392
8	0x3cc41134	0.023933984
9	0xbd6b1ebc	-0.057402357
10	0xbce1d2bb	-0.027566304
11	0xbe3c3e35	-0.18383105
12	0xbe3868e4	-0.18008763
13	0xbe816172	-0.25269657
14	0xbf11526f	-0.5676641
15	0xbdf0c0b8	-0.11755508
16	0xbda095e2	-0.07841088
17	0xbdf5e938	-0.120073736
18	0xbe0a6a99	-0.13517226
19	0xbe0d7c30	-0.13816905
20	0x3d9ad15a	0.07559462
21	0xbe604f7d	-0.21905322
22	0x3e50e08f	0.20398162
23	0xbcd0925c	-0.025460415
24	0x3e29821d	0.1655354
25	0x3cbdf657	0.023188753
26	0xbd009052	-0.031387635
27	0xbe7a9e0f	-0.24474357
28	0x3e1047bd	0.14089866
29	0x3d4d21d7	0.0500811
30	0xbdfc5c95	-0.12322346
31	0xbe87a954	-0.26496375
32	0x3ecf27ed	0.40460148
33	0x3d1ce24d	0.038301755
34	0x3e510b30	0.20414424
35	0x3e30fa19	0.17282905
36	0xbbab369e	-0.0052250167
37	0xbcea5ca4	-0.028608628
38	0x3e468873	0.19387989
39	0x3d2c29e0	0.042032123
40	0x3e540b67	0.20707475
41	0x3e15775a	0.1459631
42	0x3d3b97c3	0.045799028
43	0xbe9549d6	-0.29157895
44	0xbd20e25b	-0.03927837
45	0x3e36943d	0.17829986
46	0x3ea523eb	0.32253966
47	0x3d894896	0.06703298
48	0x3e9bf158	0.30457568
49	0xbeff75b0	-0.49894476
50	0xbe0c4fa4	-0.13702255
51	0xbde16312	-0.11005224
52	0x3f097ff5	0.5371087
53	0x3d6046f4	0.054755166
54	0xbd0194e9	-0.031636152
55	0xbe5c4d66	-0.215139
56	0xbe2e85d9	-0.17043246
57	0xbf491706	-0.78550756
58	0xbe0fb837	-0.14035116
59	0x3ebff793	0.37493572
60	0xbb7481d1	-0.0037308822
61	0x3e2e4870	0.1701982
62	0xbe747464	-0.23872524
63	0xbd35c229	-0.04437462
64	0x3cf6e16f	0.030136792
65	0xbde95b70	-0.113943934
66	0x3e50fb3f	0.20408343
67	0x3e171126	0.14752635
68	0xbecfb3df	-0.40566918
69	0x3d8869be	0.06660794
70	0x3c9d36b5	0.019191125
71	0xbcf97fa8	-0.030456379
72	0x3d8f4a74	0.06996623
73	0xbdb770aa	-0.08957036
74	0x3e707078	0.23480403
75	0x3b300bf6	0.0026862598
76	0xbe3917e3	-0.18075518
77	0xbd28d50e	-0.04121881
78	0xbe2f31a8	-0.17108786
79	0x3dc34db8	0.09536308
80	0x3be7b97e	0.007071673
81	0x3d5489bf	0.051889177
82	0x3dfefc00	0.12450409
83	0x3e9ad6f5	0.30242124
84	0xbe5fe7e5	-0.21865804
85	0x3e507a29	0.203591
86	0x3e70befc	0.23510355
87	0xbc1d366f	-0.0095954975
88	0x3ed02729	0.40654877
89	0xbbd6347a	-0.0065370174
90	0xbd1a18fb	-0.03762148
91	0x3d138e7f	0.036024567
92	0xbe0ddbfd	-0.1385345
93	0x3cf606f6	0.030032616
94	0x3dfb0b12	0.12257971
95	0x3d6416ab	0.05568568
96	0x3d815015	0.063141026
97	0x3d013ec8	0.031554013
98	0xbd8c811c	-0.06860563
99	0xbdc66a87	-0.09688287
100	0xbd93c65b	-0.07215568
101	0x3d3896f6	0.045065843
102	0xbd02194d	-0.03176241
103	0xbe11427a	-0.14185515
104	0x3b86b3e9	0.0041108024
105	0xbe57876b	-0.21047752
106	0xbde67d1e	-0.11254333
107	0x3d084bcf	0.03327542
108	0x3e2712df	0.16315793
109	0x3d78de12	0.060758658
110	0xbdaad3c4	-0.08341172
111	0xbe58cbfe	-0.21171567
112	0x3b876409	0.004131798
113	0x3e955c5f	0.29172036
114	0xbd5f0b86	-0.05445435
115	0x3edc77e3	0.43060216
116	0xbec12943	-0.37726793
117	0xbd11b121	-0.035569314
118	0xbc6d8dc0	-0.014499128
119	0x3ec598e3	0.38593206
120	0xbcabac17	-0.020956082
121	0x3af70877	0.0018847127
122	0xbe8ba26f	-0.27272364
123	0xbe6a87b3	-0.22903328
124	0xbd6b7d3b	-0.057492476
125	0x3eb6a512	0.35672814
126	0xbc04fce8	-0.008116938
127	0x3ea4dd7b	0.32200226
128	0xbe462d6a	-0.19353262
129	0x3d17cb49	0.037059102
130	0x3da278cf	0.07933199
131	0xbe684020	-0.22680712
132	0x3da6e26e	0.08148657
133	0xbc129dc9	-0.008948752
134	0xbe09272f	-0.13393854
135	0x3ddcbf55	0.10778681
136	0x3f261781	0.64879614
137	0xbefa175d	-0.4884595
138	0x3ee24b29	0.44197968
139	0x3f45c7fe	0.7725829
140	0xbe0330a6	-0.12811527
141	0xbd37952e	-0.044820003
142	0x3f02b195	0.5105222
143	0xbec6536c	-0.3873552
144	0x3e00d9b5	0.12583049
145	0xbc13a94c	-0.0090125315
146	0xbca8b2ce	-0.020593073
147	0x3e4be6cd	0.19912262
148	0xbec9c907	-0.39411184
149	0x3bdbf2f7	0.0067123133
150	0xbc39818a	-0.011322388
151	0x3dceef3e	0.101042256
152	0xbe0c9a37	-0.13730703
153	0x3e4ea61b	0.20180552
154	0xbe8669f7	-0.2625272
155	0x3dcb7174	0.09933749
156	0xbe9bb589	-0.30411938
157	0xbe8a6f72	-0.2703815
158	0x3f22e191	0.6362544
159	0x3ca8f7a1	0.020625891
160	0x3dd2e6a5	0.10297898
161	0xbea786ec	-0.32720125
162	0xbcff3940	-0.031155229
163	0xbeb5ff2d	-0.35546246
164	0x3f59f213	0.85135
165	0x3e093770	0.13400054
166	0x3f1fa5b9	0.6236225
167	0x3e2dd039	0.16973962
168	0xbe24d15b	-0.16095488
169	0xbec492d6	-0.38393277
170	0xbec96df8	-0.39341712
171	0xbc565266	-0.013081169
172	0xbbcd262d	-0.0062606544
173	0x3c6d3064	0.014476869
174	0x3d146899	0.036232565
175	0xbe7b393f	-0.24533556
176	0x3ea0bf50	0.3139596
177	0xbd80da9a	-0.06291695
178	0xbd9563a8	-0.072943985
179	0x3dbd6b4a	0.092489794
180	0x3db2b48b	0.08725842
181	0xbe832442	-0.256136
182	0x3d821bc4	0.06352952
183	0xbe571b1c	-0.21006435
184	0xbefdf5e6	-0.49601668
185	0x3f199cdc	0.60004973
186	0x3c979b57	0.018506689
187	0x3de3124f	0.110874765
188	0xbdc96a66	-0.09834747
189	0x3dd464cd	0.10370789
190	0x3e454c26	0.1926733
191	0xbeec4cf7	-0.4615247
192	0x3d56972d	0.052390266
193	0xbeca8449	-0.3955405
194	0x3f1a39fe	0.6024474
195	0x3d845a4e	0.06462537
196	0x3c49dab3	0.012320208
197	0xb91870d2	-0.00014537878
198	0x3d9acbd7	0.075584106
199	0xbce1698b	-0.027516147
200	0x3e1f881a	0.15579262
201	0xbbd91290	-0.0066245273
202	0x3eb25b6f	0.34835383
203	0xbf39e87d	-0.72620374
204	0x3caa326c	0.020775996
205	0x3d8acf3a	0.067778066
206	0xbd50c9de	-0.050973766
207	0xbd42245b	-0.047397953
208	0x3e1831ab	0.14862697
209	0x3e264355	0.16236623
210	0x3cbb7e94	0.022887506
211	0x3e942d1d	0.2894067
212	0xbe987c5d	-0.29782382
213	0x3d923b94	0.0714027
214	0x3e0194ab	0.12654369
215	0xbdde09b3	-0.10841694
216	0x3de9cf6e	0.11416517
217	0xbe1c8f79	-0.15289105
218	0x3e3e07e6	0.185577
219	0xbe2020e5	-0.15637548
220	0x3e0a8e0d	0.1353075
221	0xbee14744	-0.43999684
222	0x3e13e462	0.1444259
223	0x3d3de79d	0.04636346
224	0xbe07f035	-0.13275225
225	0xbcbb3248	-0.022851124
226	0x3d3ae8e2	0.04563225
227	0xbe4d4608	-0.20046246
228	0xbed241cb	-0.4106582
229	0x3e4bca88	0.19901478
230	0xbdfb49e2	-0.122699514
231	0xbe15a50c	-0.14613742
232	0xbe2e26cc	-0.17006987
233	0xbdd19490	-0.10233414
234	0x3ec763b5	0.38943258
235	0xbc9e695d	-0.01933735
236	0x3e8181fa	0.25294477
237	0x3d21a368	0.039462477
238	0xbe12e858	-0.14346445
239	0xbe0656c1	-0.13119031
240	0x3c879cbf	0.016554235
241	0xbde02ec7	-0.10946422
242	0x3c3c7e32	0.011504697
243	0x3d6789cf	0.05652791
244	0xbe038b87	-0.12846194
245	0xbec82761	-0.39092544
246	0xbeba71a0	-0.36414814
247	0x3e1529d5	0.14566739
248	0x3e3cd943	0.18442254
249	0x3e46fd27	0.19432507
250	0x3e77b97e	0.24191853
251	0x3e2ebd66	0.17064437
252	0xbdb4b555	-0.08823649
253	0xbe3090b0	-0.17242694
254	0xbdff00b3	-0.12451305
255	0x3dbc7c0a	0.09203346

bias f4 [12]
0	0x3c8bb9db	0.017056396
1	0x3d5b6676	0.05356451
2	0xbdb535bf	-0.08848142
3	0x3d903de7	0.07043057
4	0x3df66b36	0.120321676
5	0x3d0dc7a8	0.034614235
6	0xbe58ef1a	-0.2118496
7	0xbd13c9b7	-0.036081042
8	0x3df72b8b	0.12068852
9	0xbcbe9468	-0.023264125
10	0xbe08cc74	-0.13359243
11	0x3de35da1	0.11101843

weight f4 [12]
0	0x3f7ba35d	0.9829615
1	0xbda7dff4	-0.081970125
2	0x3f815172	1.010298
3	0x3e9f0fbf	0.310667
4	0x3f64d50e	0.89387596
5	0x3f83e7aa	1.0305073
6	0xbe834445	-0.25638023
7	0x3f78d26e	0.9719609
8	0x3eb9bed8	0.36278415
9	0xbf113039	-0.56714207
10	0x3cf8e07e	0.030380484
11	0x3f5e4387	0.8682179

weight f4 [12, 12, 3, 3]
0	0xbd8eb27f	-0.06967639
1	0xbe91befa	-0.28466016
2	0x3e562fd6	0.20916685
3	0x3e56b1cb	0.2096626
4	0xbf0c930b	-0.5491187
5	0x3dcf1b58	0.10112637
6	0x3eb35b19	0.3503044
7	0xbe6b23e2	-0.22962907
8	0x3c7adb76	0.015311113
9	0x3e8082ee	0.2509989
10	0x3e6d60ba	0.2318143
11	0xbf1a1613	-0.6018993
12	0x3e709d32	0.23497465
13	0x3e8894c1	0.2667599
14	0x3e23de0f	0.16002677
15	0x3ec6aac5	0.38802162
16	0xbe8a671a	-0.27031785
17	0x3d6cadcd	0.057782937
18	0xbe7c9907	-0.2466775
19	0xbd1aafdc	-0.03776537
20	0xbdda72ad	-0.10666404
21	0xbec2a73a	-0.3801821
22	0x3e8e54e0	0.2779913
23	0x3e38d6a7	0.18050633
24	0xbcab21d5	-0.020890156
25	0x3d6ac367	0.057315256
26	0xbdc618fe	-0.09672736
27	0x3d53f8ff	0.051751133
28	0xbd69d484	-0.057087436
29	0x3da50a44	0.08058599
30	0xbedc8e32	-0.43077236
31	0xbe4da10b	-0.20080964
32	0x3f369000	0.71313477
33	0xbeacb7c8	-0.33733964
34	0xbd52ec67	-0.051494982
35	0x3d906d4a	0.07052095
36	0xbe8c4edb	-0.27403912
37	0xbe55a140	-0.20862293
38	0xbd9138ee	-0.070909366
39	0xbefda5a0	-0.49540424
40	0x3ed91196	0.4239623
41	0xbdee9631	-0.116497405
42	0xbe6bf05c	-0.23040909
43	0x3e83d699	0.25749663
44	0xbdb12f2f	-0.08651578
45	0xbe3fa790	-0.18716264
46	0xbea2db54	-0.3180796
47	0xbe203305	-0.15644462
48	0xbe878386	-0.26467532
49	0x3d8f9a57	0.0701186
50	0x3d83c0b5	0.0643324
51	0x3d828e3e	0.06374787
52	0xbeb91718	-0.36150432
53	0xbcdc6491	-0.026903423
54	0xbded588b	-0.11589154
55	0xbde16244	-0.11005071
56	0x3d18b35e	0.037280433
57	0x3da3d0a3	0.07998779
58	0x3e26e564	0.16298443
59	0xbe6094af	-0.21931718
60	0x3e32b6ea	0.17452589
61	0x3ea13e93	0.31493053
62	0xbe476d4c	-0.19475287
63	0xbf12770b	-0.57212895
64	0x3d2af8b0	0.041741073
65	0xbdba300d	-0.09091196
66	0xbdcf3066	-0.10116653
67	0xbeb6c9c6	-0.35700816
68	0xbe6f8ec0	-0.23394299
69	0xbd42b1c4	-0.04753281
70	0xbe95f267	-0.292865
71	0xbe69375c	-0.22775024
72	0xbe7e1d24	-0.24815804
73	0x3e2aa2d3	0.16663675
74	0xbeb86491	-0.36014226
75	0xbe97763e	-0.295824
76	0xbe8b5de7	-0.2722008
77	0xbf092fd1	-0.5358859
78	0xbecf7bd5	-0.40524164
79	0x3d193621	0.037405137
80	0xbd971f9b	-0.07379075
81	0x3e4a345b	0.19746535
82	0x3c9dd6f8	0.019267544
83	0xbeb3cfad	-0.35119382
84	0xbdd001bf	-0.10156583
85	0xbcfab7e0	-0.030605257
86	0xbe008a2a	-0.12552705
87	0x3d9cca51	0.07655776
88	0x3e6907f2	0.22756937
89	0xbd4e616b	-0.050385874
90	0xbdcaa67c	-0.098950356
91	0x3d99ea57	0.075154
92	0x3e5277db	0.20553534
93	0xbf0314a0	-0.51203346
94	0xbe9da894	-0.30792677
95	0x3ec247b2	0.37945324
96	0xbef2038c	-0.4726833
97	0x3dfa4df9	0.12221903
98	0x3b6a37f1	0.003573891
99	0xbf26c450	-0.651433
100	0xbd75dbe7	-0.06002417
101	0x3e797711	0.24361826
102	0xbe0724db	-0.13197653
103	0xbed011a2	-0.40638453
104	0x3ecddf4f	0.40209433
105	0x3ecb4504	0.39701092
106	0xbe4bd721	-0.19906284
107	0x3e687fba	0.22704974
108	0x3cc24004	0.023712166
109	0xbf32dc3c	-0.698673
110	0xbd0cc5a2	-0.034368165
111	0x3db5d00b	0.08877572
112	0x3f15a498	0.58454275
113	0xbe8f0e39	-0.2794054
114	0x3e2e5840	0.17025852
115	0xbd53de3a	-0.051725604
116	0xbe5a64a7	-0.21327458
117	0x3e1f4892	0.15555027
118	0xbefbd3b7	-0.49184963
119	0xbeaebb11	-0.34127095
120	0xbe3f78da	-0.18698445
121	0x3ebc04a3	0.36722288
122	0xbec28cf9	-0.3799818
123	0xbef0f88d	-0.4706463
124	0x3e970fd4	0.29504263
125	0xbdb4abdd	-0.08821843
126	0xbeb3a1d8	-0.35084414
127	0x3def1c62	0.116753355
128	0x3c84bfba	0.016204704
129	0xbf145d05	-0.57954437
130	0xbdd716b3	-0.105023764
131	0x3eb32cfe	0.34995264
132	0x3e64f285	0.22358139
133	0x3c3da9af	0.0115761
134	0x3e17ecb5	0.1483639
135	0x3e089d45	0.13341244
136	0xbf733722	-0.95006
137	0xbdfa27f6	-0.12214653
138	0x3e8f481a	0.27984697
139	0xbf254c3d	-0.64569455
140	0xbe8a25e6	-0.2698204
141	0x3eb7b34f	0.3587899
142	0x3e21beca	0.15795437
143	0xbc8e1164	-0.017342277
144	0xbda7314d	-0.081637
145	0xbeadab2e	-0.33919662
146	0x3e20c2fd	0.15699382
147	0x3dcfa602	0.10139085
148	0xbf0275bf	-0.50960916
149	0x3e7807be	0.24221703
150	0x3dec2e8d	0.11532316
151	0xbd10bf50	-0.0353387
152	0xbd8614ee	-0.06546961
153	0x3dc0b415	0.09409348
154	0x3e8a320e	0.26991314
155	0xbcdc37a6	-0.026882004
156	0xbe9fc263	-0.31202993
157	0xbe0bc2b6	-0.13648495
158	0x3e571d0a	0.21007171
159	0x3d50e481	0.05099917
160	0xbdfed70a	-0.12443359
161	0xbdd62a92	-0.104573384
162	0x3e939014	0.2882086
163	0x3e22c758	0.15896356
164	0xbe6cf602	-0.2314072
165	0x3e3e5bd8	0.18589723
166	0xbdf5d34a	-0.12003191
167	0x3e3f94d4	0.18709117
168	0xbe44d62e	-0.19222328
169	0x3e589ebe	0.21154305
170	0x3edaae08	0.427109
171	0xbe20966a	-0.15682378
172	0x3e623ee7	0.22094308
173	0x3e0b1c30	0.13584971
174	0xbdc16987	-0.09443956
175	0xbecfcf07	-0.40587637
176	0xbdd6015c	-0.10449478
177	0x3bc66cfb	0.006055472
178	0xbe7f2052	-0.24914673
179	0xbd849ab2	-0.06474818
180	0xbe29e371	-0.16590668
181	0xbd423cb6	-0.04742118
182	0x3da53833	0.0806736
183	0xbf278c7f	-0.65448755
184	0xbf584281	-0.84476477
185	0x3e6e14c0	0.23250103
186	0x3e898057	0.26855728
187	0xbeec9e35	-0.46214452
188	0xbef4de36	-0.47825783
189	0x3dee3378	0.11630911
190	0xbe110b91	-0.14164568
191	0xbe5c1a77	-0.2149447
192	0x3e53483b	0.20633022
193	0x3eacf062	0.33777148
194	0xbea2691b	-0.31720814
195	0xbd1ec859	-0.038765285
196	0x3e97676b	0.2957109
197	0xbcafaef4	-0.021445729
198	0xbdfdfb0f	-0.12401401
199	0x3e412edf	0.18865536
200	0x3e1930f8	0.14960086
201	0xbf527663	-0.82211894
202	0x3e07296d	0.13199396
203	0xbdc1156b	-0.09427913
204	0x3daf27fe	0.0855255
205	0xbe7642e3	-0.24048953
206	0xbe5ba7e7	-0.21450768
207	0xbbd427ee	-0.0064744866
208	0xbea30cf8	-0.31845832
209	0x3ca07a47	0.019589556
210	0x3ea8f768	0.33001256
211	0xbcabd17d	-0.020973915
212	0xbecc8867	-0.39947817
213	0xbe0d1b9f	-0.13780068
214	0x3f30285a	0.6881157
215	0x3d2ce1ff	0.042207714
216	0x3d0f8dd0	0.035047352
217	0xbdfdb8e9	-0.123887844
218	0xbd3a4625	-0.04547705
219	0xbd26644b	-0.04062299
220	0x3dc19e4c	0.09454021
221	0x3e30ab1a	0.1725277
222	0xbd75a255	-0.059969265
223	0x3d8176d5	0.063214935
224	0xbdb516ae	-0.088422164
225	0x3d19cae9	0.037547026
226	0xbd8a80cd	-0.06762848
227	0x3caed283	0.021340614
228	0xbded3510	-0.115823865
229	0x3e2ada1f	0.16684769
230	0x3cb2922c	0.021798216
231	0xbb435d56	-0.0029810271
232	0x3e473a80	0.1945591
233	0xbd56acf2	-0.052411027
234	0x3d8732c2	0.06601478
235	0x3e280c44	0.16410929
236	0xbd42caa3	-0.04755653
237	0x3e808e0b	0.2510837
238	0xbe0bc07b	-0.13647644
239	0xbcb26571	-0.021776887
240	0xbd252a89	-0.040323768
241	0x3e0d7de3	0.13817553
242	0x3d44e341	0.04806829
243	0x3e1e3f9d	0.15453954
244	0x3e1df7c6	0.1542655
245	0x3a8a61fc	0.0010557766
246	0x3d83d046	0.064362094
247	0xbf2508ee	-0.6446675
248	0x3e03e9fc	0.12882227
249	0x3d04980e	0.032371573
250	0x3da864b7	0.08222335
251	0xbdbdc7e4	-0.09266642
252	0xbe507907	-0.20358668
253	0xbdfe087f	-0.12403964
254	0xbc842e11	-0.016135247
255	0xbc322730	-0.010873601

bias f4 [12]
0	0xbda0556a	-0.078287914
1	0xbd8451d6	-0.064609215
2	0xbd498653	-0.049200367
3	0x3dbe406d	0.09289632
4	0x3d8d03f7	0.06885522
5	0xbe22be63	-0.1589294
6	0xbd928806	-0.07154851
7	0xbc6b3616	-0.014356157
8	0x3d43a17b	0.04776142
9	0xbb389a05	-0.0028167975
10	0xbdc5e75b	-0.09663268
11	0x3d29e295	0.04147585

weight f4 [12]
0	0x3ddefbe6	0.108878896
1	0xbd524463	-0.05133475
2	0x3f17be62	0.59274876
3	0x3dce9e10	0.10088742
4	0xbe3afb0c	-0.1825983
5	0x3f81a7e7	1.0129365
6	0x3f7b03ac	0.9805248
7	0x4019ff15	2.406194
8	0x3f7744f8	0.9658961
9	0xbedb6da8	-0.428571
10	0x3f6fe37d	0.93706495
11	0xbf8fcab1	-1.1233732

weight f4 [12, 12, 3, 3]
0	0x3e0935f5	0.13399489
1	0xbd7b4b8b	-0.06135134
2	0x3e891e55	0.26780954
3	0x3e549249	0.20758928
4	0x3d413bad	0.047176052
5	0xbce3736b	-0.027764997
6	0x3a7ce747	0.00096475
7	0x3dc7720a	0.09738548
8	0x3d7139be	0.058892958
9	0xbd6553a1	-0.055987958
10	0x3c14f5d3	0.009091812
11	0x3d69d5c3	0.057088625
12	0x3d66a0ac	0.056305572
13	0x3ee782e8	0.4521706
14	0x3e69c568	0.22829211
15	0x3d54833f	0.05188298
16	0xbde5d226	-0.11221723
17	0x3d763fa9	0.060119305
18	0xbcbcbe1c	-0.02303987
19	0xbbbc883c	-0.005753545
20	0xbddabf3e	-0.10681008
21	0x3de48940	0.11158991
22	0xbe5d5cb2	-0.21617392
23	0xbd2f1a7b	-0.042749863
24	0xbbdbfc90	-0.0067134574
25	0x3d07bf74	0.03314157
26	0xbe13301b	-0.1437382
27	0x3d80dc42	0.06292011
28	0x3e7ec1a7	0.2487856
29	0x3d5cb85b	0.053886753
30	0x3e1cb6d9	0.15304126
31	0x3e85bf0d	0.26122323
32	0x3d993eb7	0.07482665
33	0x3e2ce567	0.16884385
34	0xbef8d1b2	-0.48597485
35	0x3e34b5b9	0.17647447
36	0xba35c4ff	-0.0006933957
37	0x3d3f14e7	0.046650793
38	0x3da73f07	0.081663184
39	0xbe11e423	-0.14247184
40	0xbeb13854	-0.34613287
41	0xbd91c036	-0.071167395
42	0x3bb8579e	0.005625679
43	0x3e8f3c12	0.27975518
44	0x3d4a1699	0.049337957
45	0xbd736fa8	-0.059432656
46	0xbe059f16	-0.13048968
47	0x3cfa66a7	0.030566527
48	0xbd79d5ea	-0.06099502
49	0x3c74633a	0.014916236
50	0xbdbd8659	-0.092541404
51	0x3dfe730e	0.12424289
52	0xbeaf1afe	-0.3420028
53	0xbd2bb0ca	-0.041916646
54	0xbd6baf7f	-0.057540413
55	0xbe8680d8	-0.26270175
56	0xbd6c0376	-0.057620488
57	0xbe40f843	-0.18844704
58	0x3e98d476	0.29849595
59	0xbe4d244a	-0.20033374
60	0xbd91b52c	-0.07114634
61	0xbe13994b	-0.14413945
62	0x3d6ec18a	0.058290042
63	0xbd05b385	-0.032641906
64	0xbd9a7435	-0.07541696
65	0x3d87033c	0.06592414
66	0x3e450128	0.19238722
67	0x3e0d3bc3	0.13792329
68	0xbb473a59	-0.0030399768
69	0x3cec70b7	0.02886234
70	0xbdb24035	-0.08703653
71	0x3cb52cfa	0.022116173
72	0x3e1044d8	0.14088762
73	0x3e384a34	0.17997056
74	0xbcdb1856	-0.026745003
75	0x3e711eb9	0.23546876
76	0x3eafd32a	0.34340793
77	0xbe4371c5	-0.19086368
78	0xbd8dfefe	-0.069334015
79	0xbe6b4fb6	-0.22979626
80	0x3a145366	0.0005658179
81	0xbd22773f	-0.039664503
82	0x3e2b7d74	0.16747075
83	0xbd213c21	-0.039363984
84	0xbe3ae98e	-0.18253157
85	0xbd7c91a5	-0.061662335
86	0xbe878020	-0.2646494
87	0xbe02a312	-0.12757519
88	0x3e2c54e4	0.16829258
89	0x3d91584a	0.07096918
90	0x3e432142	0.19055656
91	0x3e4acffd	0.19805904
92	0xbe0aa809	-0.13540663
93	0x3dad7571	0.08469666
94	0xbec3de21	-0.38255408
95	0xbd597deb	-0.0530986
96	0x3d41da94	0.047327593
97	0x3e796258	0.24353921
98	0xbb136bc3	-0.002249465
99	0xbd73cc97	-0.059521284
100	0xbddd92ae	-0.108189926
101	0xbe1e50df	-0.15460537
102	0xbe0b7823	-0.13620047
103	0x3e63fce3	0.22264437
104	0xbdfed207	-0.12442403
105	0xbd261315	-0.04054554
106	0xbe0cc12e	-0.13745567
107	0xbdcbaed4	-0.09945455
108	0x3cd53271	0.026025029
109	0xbd3d5854	-0.046226814
110	0x3daa80c7	0.083253436
111	0x3c4b3274	0.012402166
112	0xbda3ebd3	-0.08003964
113	0xbc93a837	-0.018024547
114	0xbcf40569	-0.029787736
115	0xbc210a13	-0.009829062
116	0x3dc59d68	0.096491635
117	0xbce9c0ca	-0.028534312
118	0xbd49160b	-0.049093287
119	0x3d1410a3	0.03614868
120	0x3d38c88c	0.04511313
121	0x3e4e7e8e	0.20165464
122	0xbd1a829f	-0.037722226
123	0xbd310f02	-0.043227203
124	0x3d957371	0.07297409
125	0xbd220108	-0.039551765
126	0xbd132e77	-0.035932984
127	0xbcc8ad25	-0.024496624
128	0xbd281b96	-0.041041933
129	0x3caa261a	0.020770121
130	0x3e4e72c5	0.20160969
131	0xbe1769c4	-0.1478644
132	0x3bd76559	0.006573361
133	0xbd970c42	-0.07375385
134	0xbe2f3661	-0.17110588
135	0xbc8361a1	-0.016037764
136	0x3d345b10	0.044032156
137	0x3d6c7a07	0.05773356
138	0xbc0bce49	-0.008533069
139	0x3e479841	0.19491674
140	0x3c51273d	0.012765703
141	0x3d69a918	0.057046026
142	0xbe8dabf7	-0.2767026
143	0x3d524b4c	0.05134134
144	0xbce2a71d	-0.027667576
145	0x3c97756b	0.018488606
146	0x3cb196a5	0.021678278
147	0x3d50b45f	0.050953265
148	0x38e90226	0.00011110706
149	0x3c68aa9d	0.014200834
150	0x3d90dd84	0.07073501
151	0xbe955c7b	-0.2917212
152	0x3d872921	0.065996416
153	0xbd2fa8e0	-0.04288566
154	0x3c3e5470	0.011616811
155	0x3c865177	0.016396267
156	0xbc87801e	-0.016540583
157	0xbc96f820	-0.018428862
158	0x3deadd32	0.11467971
159	0xbc28bb98	-0.010298632
160	0xbcca5c00	-0.024702072
161	0x3ddc27ac	0.10749754
162	0xbd4ed88e	-0.05049949
163	0xbd5cccd0	-0.053906262
164	0xbd9f74a3	-0.077859186
165	0x3d965e37	0.07342189
166	0x3ec173a8	0.3778355
167	0x3e9fd032	0.31213528
168	0xbd1c5c2b	-0.038173836
169	0x3e179116	0.1480144
170	0x3da95687	0.08268457
171	0x3cae4599	0.021273421
172	0x3b6349bd	0.0034681403
173	0xbd42fa0b	-0.04760174
174	0x3d04a470	0.032383382
175	0xbe065c69	-0.13121189
176	0x3d770cb2	0.06031484
177	0xbc52188f	-0.012823238
178	0x3cfe563a	0.031046975
179	0xbbecec1d	-0.0072302953
180	0x3de22c95	0.110436596
181	0x3e4569b2	0.19278601
182	0x3d08d65d	0.033407558
183	0x3de5b922	0.11216952
184	0x3e6c7918	0.23093069
185	0x3e50870b	0.20364015
186	0xbdac67d3	-0.084182404
187	0x3e90e51d	0.282998
188	0x3c393468	0.0113039985
189	0xbb7df4df	-0.003875069
190	0xbc30f531	-0.010800646
191	0x3d149269	0.03627244
192	0x3a3519bb	0.0006908436
193	0x3b1ed86e	0.002423789
194	0xbc91849a	-0.017763425
195	0xba133195	-0.0005614993
196	0x3cd14515	0.025545636
197	0x3ae8ff5d	0.00177763
198	0x3d24c4ca	0.040226735
199	0x3d9746e3	0.073865674
200	0xbd0fa27c	-0.035067067
201	0xbd39380e	-0.045219474
202	0xbb1fcbee	-0.0024383026
203	0x3d317b65	0.04333057
204	0x3cdfa9be	0.02730262
205	0xbd3e077d	-0.04639386
206	0x3d399f4a	0.045317926
207	0x3c36caf9	0.011156791
208	0x3d4de34e	0.050265603
209	0xbe00af4b	-0.12566869
210	0x3cb8eebb	0.022574773
211	0xbdf732c3	-0.12070229
212	0x3c13b311	0.009014861
213	0xbd1e6d77	-0.038678613
214	0x3d27e15f	0.040986415
215	0x3d1461da	0.03622613
216	0xbeb32117	-0.34986183
217	0x3dff3c7d	0.12462709
218	0x3de3f4cb	0.11130675
219	0xbdeb2a79	-0.114827104
220	0xbe29bee1	-0.16576721
221	0x3e6eae64	0.23308712
222	0xbda282a1	-0.07935072
223	0xbedc7a23	-0.43061933
224	0x3eee5174	0.4654652
225	0xbe51901c	-0.2046513
226	0x3e2470f3	0.16058712
227	0x3cd0c693	0.025485313
228	0xbe4eef41	-0.20208456
229	0x3f06d862	0.52673924
230	0xbe49f35e	-0.19721743
231	0xbe026dfe	-0.12737271
232	0xbccd031b	-0.025025895
233	0xbd4bee40	-0.04978776
234	0xbd458523	-0.048222672
235	0xbe7993cc	-0.24372786
236	0x3e85f459	0.26162985
237	0x3e0c94ed	0.13728686
238	0x3dc28b76	0.09499256
239	0x3f2f5e96	0.685037
240	0x3bb5dd12	0.0055500353
241	0x3eadf539	0.33976153
242	0x3dde85e6	0.10865383
243	0xbdc5d224	-0.09659222
244	0xbb371d13	-0.0027940914
245	0x3e006152	0.12537125
246	0x3e9e85a4	0.30961335
247	0xbebe62e5	-0.37184826
248	0x3efaccc4	0.4898435
249	0x3c126bd3	0.00893684
250	0xbdb0fdbd	-0.08642147
251	0x3bb041db	0.0053789443
252	0x3d159281	0.03651667
253	0x3cab3bc9	0.020902531
254	0x3c61a2d9	0.013771736
255	0x3cb3b551	0.021937044

bias f4 [12]
0	0x3e846185	0.25855651
1	0x3e3d2063	0.18469386
2	0x3d40e1a8	0.047090203
3	0x3ea27bb4	0.31735003
4	0x3dd5d904	0.10441783
5	0x3d02f3e9	0.031970892
6	0x3e84e56e	0.2595629
7	0x3de336b5	0.11094419
8	0xbe289d51	-0.16466261
9	0x3d3c249b	0.045933347
10	0xbdd0dd89	-0.101985045
11	0x3dd883cc	0.10572013

weight f4 [12]
0	0x3f729ea2	0.94773304
1	0x3f7e2f17	0.99290603
2	0x3e574059	0.2102064
3	0x3f43fa6d	0.76553994
4	0x3f78ad76	0.9713968
5	0xbd9da169	-0.07696802
6	0x3e1f9976	0.15585884
7	0x3ebcf6cf	0.3690705
8	0x3f982028	1.1884813
9	0x3d617bde	0.05504977
10	0x3ebf45f3	0.37358055
11	0x3f882528	1.0636339

weight f4 [12, 12, 3, 3]
0	0xbd2194b8	-0.03944847
1	0xbe3481d9	-0.17627658
2	0xbd6f3ce6	-0.058407687
3	0xbd19a99d	-0.03751527
4	0x3ec6e369	0.38845375
5	0x3d7797ef	0.06044763
6	0x3a99ad5c	0.0011724639
7	0xbdd8e966	-0.10591392
8	0xbd525bd6	-0.051357113
9	0x3d683187	0.056687858
10	0x3e54455b	0.20729582
11	0xbd5e8b1f	-0.054331895
12	0x3e97049f	0.29495713
13	0x3f023426	0.5086082
14	0x3de32c7f	0.11092471
15	0xbd96c4e5	-0.073617734
16	0xbdde563c	-0.10856292
17	0xbdc2ac39	-0.09505505
18	0x3d314a21	0.043283585
19	0xbcca39ed	-0.024685824
20	0xbc0b047a	-0.008484954
21	0xbca0cdf1	-0.01962945
22	0xbcd022d5	-0.025407234
23	0x3c6d680f	0.0144901415
24	0xbc0d5abd	-0.008627591
25	0xbca7d06e	-0.02048513
26	0xbbec52e8	-0.0072120316
27	0x3af68d14	0.0018810355
28	0xbd3d1c24	-0.046169415
29	0xbd76890c	-0.06018929
30	0xbd0bf761	-0.034171466
31	0x3e7070d2	0.23480538
32	0x3a8961a9	0.0010481376
33	0xbd0b51fc	-0.034013733
34	0xbd209f9b	-0.03921471
35	0xbd49408b	-0.04913382
36	0x3d8c2fbd	0.06845043
37	0xbc9bb0c3	-0.019005185
38	0xbca6bfec	-0.020355187
39	0x3d02a7f3	0.03189845
40	0xbf1240b8	-0.5713
41	0xbd99f934	-0.07518235
42	0xbd46f67a	-0.048574902
43	0x3d3133d2	0.04326231
44	0xbc46d80f	-0.012136473
45	0x3ab2b78e	0.0013635026
46	0xbbe31f43	-0.006931217
47	0xbc44cf0b	-0.0120122535
48	0xb8a391c2	-7.799595e-05
49	0xbd8cf167	-0.06881981
50	0xbc8cc088	-0.01718165
51	0x3bef38ba	0.0073004635
52	0x3d3a04ec	0.04541485
53	0x3d12bc29	0.035823975
54	0x3bd94fed	0.0066318423
55	0xbb4862b7	-0.0030576417
56	0x3cab4843	0.02090848
57	0x3d6e4da9	0.05817953
58	0x3edc0955	0.4297587
59	0xbd9c6b32	-0.076376334
60	0xb901e422	-0.00012387385
61	0xbe2b63ab	-0.16737239
62	0xbc412853	-0.011789399
63	0xbc1b141c	-0.009465244
64	0x3b5c4d10	0.0033615269
65	0xbc8b572c	-0.01700934
66	0xbb766de3	-0.0037602119
67	0x3c85baa3	0.016324347
68	0xbd84cdde	-0.064845785
69	0xbcc38c5c	-0.02387064
70	0xbd45cd1f	-0.04829132
71	0xbc134e4b	-0.0089908345
72	0xbbb478f2	-0.005507582
73	0x3d070d7c	0.032971844
74	0x3bf51d7f	0.007480323
75	0xbcf2c256	-0.029633682
76	0x3d1d8378	0.038455456
77	0xbc5546ed	-0.013017398
78	0xbae575a9	-0.0017506379
79	0x3c036615	0.008019944
80	0x3c516c32	0.012782143
81	0xbd338803	-0.043830883
82	0xbd276622	-0.040868886
83	0xbc741a14	-0.014898796
84	0xbc8ccc6d	-0.017187322
85	0x3c18395d	0.00929102
86	0x3ac68402	0.0015145543
87	0xbbc283a5	-0.0059361034
88	0xbad535c9	-0.001626664
89	0xbc4f63b4	-0.012658048
90	0x3c93101a	0.017952014
91	0x3c0d6536	0.008630088
92	0x3cd5e6b1	0.026110979
93	0x3b7ce277	0.0038587132
94	0xbd991d66	-0.074763104
95	0x3c0fe9e2	0.008783789
96	0xbb766ccd	-0.0037601471
97	0x3d12da41	0.035852674
98	0x3c266091	0.010154859
99	0xbccbe703	-0.024890428
100	0xbd195f16	-0.037444197
101	0xbd4b7f9d	-0.04968225
102	0xbdc19f93	-0.094542645
103	0x3f0988bd	0.5372427
104	0x3d2b12e8	0.041766077
105	0x3c2b86b5	0.010469128
106	0xbdc945ce	-0.09827767
107	0xbd8fddd9	-0.07024736
108	0xbd03e387	-0.03219941
109	0x3d36a9d4	0.044595554
110	0x3deb02fa	0.11475177
111	0x3ecfddc8	0.40598893
112	0xbf04e0d5	-0.51905566
113	0xbce28082	-0.027649168
114	0x3e33a7b6	0.17544445
115	0x3d593485	0.053028602
116	0x3d5f07ad	0.05445068
117	0x3daef114	0.08542076
118	0xbe9421d6	-0.28932065
119	0x3be48ce8	0.006974805
120	0x3dfaa6dd	0.12238858
121	0x3c079c49	0.008277007
122	0xbe38dcbf	-0.18052958
123	0x3e1d4018	0.15356481
124	0xbe652608	-0.22377789
125	0xbd12d020	-0.035843015
126	0x3dede31a	0.11615582
127	0x3d115aef	0.03548711
128	0xbc38c091	-0.01127638
129	0x3e734cbf	0.23759745
130	0xbe1f8c94	-0.1558097
131	0xbd9bc4d1	-0.07605899
132	0xbdf5a938	-0.119951665
133	0xbe768543	-0.24074273
134	0x3c53d181	0.012928368
135	0xbe174eee	-0.14776203
136	0x3da5f3b2	0.08103122
137	0x3cc46737	0.023974998
138	0x3eef1d9d	0.4670228
139	0xbf15914f	-0.5842485
140	0xbe9b9344	-0.30385792
141	0x3e47ec6b	0.1952378
142	0xbe28db37	-0.16489874
143	0xbd0ac5f1	-0.033880178
144	0x3e1e50eb	0.15460555
145	0xbdae1707	-0.08500486
146	0xbe066519	-0.13124503
147	0xbe2d96cf	-0.1695206
148	0x3d55217e	0.052033894
149	0xbd2fa505	-0.042881984
150	0x3d871fa3	0.06597831
151	0xbec98f20	-0.39367008
152	0x3dd19d6d	0.10235105
153	0x3d0e5ab8	0.034754485
154	0x3e76a399	0.24085845
155	0x3e598bd8	0.21244752
156	0xbe1c56ad	-0.15267439
157	0x3ea4307d	0.32068244
158	0x3c7eff53	0.015563804
159	0x3b4b4520	0.0031016544
160	0x3e3bc3f6	0.18336472
161	0x3d872137	0.06598132
162	0xbd9988aa	-0.0749677
163	0x3e253672	0.1613405
164	0x3d90fd7b	0.070795976
165	0xbe1dab86	-0.15397462
166	0x3e60f707	0.21969233
167	0x3d2daf50	0.04240352
168	0x3da1297c	0.07869241
169	0x3f8269c6	1.018853
170	0x3f2ee37a	0.6831585
171	0x3c81a0ca	0.01582374
172	0xbe0d93dd	-0.13825937
173	0x3d134189	0.03595117
174	0x3ba3f90c	0.005004054
175	0xbd2d519b	-0.042314153
176	0xbe709814	-0.23495513
177	0x3cc7d711	0.024394544
178	0xbde3d9e4	-0.11125544
179	0xbd98a5c4	-0.07453492
180	0xbba7fb3e	-0.005126386
181	0x3de518f5	0.11186401
182	0xbd8fbf26	-0.070188805
183	0xbd002543	-0.031285536
184	0x3e2946bc	0.1653089
185	0x3dba9ea9	0.09112293
186	0x3d6f38aa	0.05840365
187	0xbd076d97	-0.033063497
188	0x3c621477	0.0137988245
189	0x3df10c0b	0.11769875
190	0xbdd57a5f	-0.10423731
191	0x3d966916	0.07344262
192	0xbd91c291	-0.07117189
193	0xbe831969	-0.25605324
194	0xbd9be385	-0.07611755
195	0x3e389ee6	0.18029365
196	0x3de611d9	0.11233873
197	0xbc60efca	-0.013729045
198	0x3d162683	0.03665782
199	0x3e04b431	0.12959363
200	0xbd047952	-0.032342263
201	0x3e0dfd48	0.1386615
202	0xbe63322a	-0.22187105
203	0x3e4a27a1	0.1974168
204	0x3ceef700	0.029170513
205	0xbe3163b9	-0.17323197
206	0x3d2d6769	0.042334948
207	0xbd167123	-0.03672899
208	0xbda3fcf7	-0.080072336
209	0x3d2eda9a	0.042688943
210	0x3e357ac1	0.17722608
211	0xbc944a4c	-0.018101834
212	0xbe350c65	-0.1768051
213	0x3e427fe7	0.18994103
214	0xbe40cbc7	-0.18827735
215	0x3da4ee2c	0.0805324
216	0xbdbdfb8b	-0.09276494
217	0xbca14551	-0.019686373
218	0xbdaaec96	-0.083459064
219	0xbe4999c3	-0.19687562
220	0x3dd9aaad	0.10628257
221	0xbe8f0b68	-0.2793839
222	0x3d140185	0.03613426
223	0x3b3b04e3	0.0028536848
224	0x3c432016	0.011909505
225	0xbb21af2b	-0.0024671059
226	0xbd56fefb	-0.052489262
227	0xbf0b3d19	-0.543901
228	0xbe11ddda	-0.14244786
229	0x3cdb3d0f	0.026762513
230	0xbea5dd0e	-0.32395214
231	0x3dbf6bfc	0.09346768
232	0x3dbba6c2	0.09162666
233	0xbe1d33f4	-0.1535185
234	0xbd56f181	-0.05247641
235	0xbe15fc23	-0.14646964
236	0x3d1235b3	0.035695743
237	0xbe32dd70	-0.17467284
238	0xbec11661	-0.37712386
239	0x3f2aa631	0.6665984
240	0xbd7ebf52	-0.062194176
241	0xbde48d68	-0.111597836
242	0xbce1d269	-0.027566152
243	0xbc31eb91	-0.010859386
244	0x3d800210	0.062503934
245	0xbf05b718	-0.52232504
246	0xbdce86f7	-0.10084336
247	0x3e08a1a0	0.13342905
248	0xbef5ca5d	-0.48005953
249	0x3d699876	0.057030164
250	0x3e288e45	0.16460522
251	0xbde9d34a	-0.11417253
252	0x3d4d8aeb	0.05018131
253	0xbd34b09c	-0.04411374
254	0xbe1ce29c	-0.1532082
255	0x3cb600d3	0.02221719

bias f4 [12]
0	0x3e1ed90f	0.15512489
1	0x3b7d1c3f	0.0038621572
2	0xbe983b17	-0.29732582
3	0xbed56f1a	-0.41686326
4	0x3ed6b291	0.4193311
5	0xbe953709	-0.2914355
6	0x3e1ebe8f	0.1550238
7	0xbe9c6cea	-0.30551845
8	0x3ebea2fb	0.3723372
9	0xbe860d7d	-0.26182166
10	0xbd848924	-0.0647147
11	0xbe7a1433	-0.24421768

weight f4 [12]
0	0x3f792f9d	0.9733828
1	0x3ebb9e94	0.36644423
2	0x3ea6fd98	0.32615352
3	0x3ea37a26	0.3192913
4	0x3e85226a	0.26002818
5	0x3e09ec22	0.13468984
6	0xbcab8cf5	-0.020941237
7	0x3e4d1570	0.20027709
8	0x3e6be8dc	0.23038048
9	0x3ec44adf	0.38338372
10	0x3f64a211	0.89309794
11	0x3f0d4a80	0.551918
